digit_generator.pth (torch, 422608 bytes, 4 tensors)

fc.0.weight f4 [128, 30]
0	0x3ba5f4f9	0.0050646034
1	0x3b8064cd	0.0039182664
2	0x3be4b015	0.0069789984
3	0xbbfe41ad	-0.007759294
4	0x3abe4f70	0.0014519524
5	0xbc135199	-0.008991622
6	0x3cc04f2b	0.02347525
7	0xbb99f5fd	-0.0046985135
8	0x3bcf7c34	0.006331945
9	0x3d11bc01	0.035579685
10	0x3d26c453	0.040714573
11	0x3c178b22	0.00924948
12	0x3b4a7f59	0.003089866
13	0xbcbd2a02	-0.02309132
14	0x3ccdb8c7	0.025112523
15	0xbd51301b	-0.051071268
16	0xbcbfc3b0	-0.02340874
17	0x3aff8690	0.0019495059
18	0xbc5721d5	-0.013130625
19	0x3cb2d479	0.02182983
20	0xbda9fe89	-0.08300502
21	0xbdfdec5d	-0.12398598
22	0x3d306f89	0.04307512
23	0xbe39eed3	-0.1815751
24	0x3d806323	0.06268909
25	0x3d1aec6f	0.037823137
26	0xbe1748d3	-0.14773874
27	0x3c87a201	0.016556742
28	0xbdc15f27	-0.09441977
29	0x3c1348ae	0.008989496
30	0xbe00f497	-0.12593304
31	0xbde99b39	-0.114065595
32	0x3e27e28a	0.16395012
33	0x3df2a4e2	0.11847855
34	0x3d9b8a54	0.07594743
35	0x3d0e4f0e	0.03474336
36	0xbdb3632e	-0.087591514
37	0xbe329ec1	-0.17443372
38	0xbdb65d28	-0.08904487
39	0xbddecf1a	-0.10879345
40	0x3e30e0f8	0.17273319
41	0xbe23c828	-0.15994322
42	0x3c886749	0.016650813
43	0x3dee70ac	0.11642584
44	0xbe03280b	-0.12808244
45	0xbdcf1979	-0.101122804
46	0x3d130bca	0.035899915
47	0x3dc3afab	0.095549904
48	0x3cd576dd	0.026057655
49	0x3d30bec9	0.043150697
50	0xbd920898	-0.071305454
51	0x3db4ded9	0.08831567
52	0xbdce4299	-0.10071296
53	0xbc6e992e	-0.014562888
54	0x3dfc80d4	0.123292595
55	0xbdd780e1	-0.105226286
56	0xbcf11afd	-0.029431814
57	0x3d3898f2	0.045067735
58	0x3d42ead2	0.047587223
59	0x3e05c961	0.13065101
60	0xbd6bf691	-0.05760819
61	0x3d8eedab	0.06978925
62	0xbe7e6ce7	-0.2484623
63	0xbe83c69b	-0.2573746
64	0x3e13d612	0.1443713
65	0x3e672bc8	0.22575295
66	0xbe47c981	-0.19510461
67	0x3e6594cb	0.22420041
68	0xbbb85301	-0.005625129
69	0xbe816fe9	-0.25280693
70	0x3e5da0cb	0.21643369
71	0x3e8a222a	0.2697919
72	0xbe686c53	-0.22697572
73	0x3e297e48	0.16552079
74	0x3e5a1777	0.21298014
75	0xbe4335fb	-0.1906356
76	0xbdcc85a2	-0.09986426
77	0xbe36ffe8	-0.17871058
78	0xbe05dcf4	-0.13072568
79	0xbe78c7cc	-0.24294966
80	0x3dc32522	0.09528567
81	0x3d946e2d	0.07247577
82	0xbcd4ab7a	-0.025960673
83	0xbd0ee6ed	-0.034888197
84	0xbcc0fd84	-0.023558386
85	0xbc1a0567	-0.009400702
86	0x3e9b7aaf	0.30367038
87	0x3e3fb67c	0.18721956
88	0x3e2c55d3	0.16829614
89	0x3d32a7dc	0.043617114
90	0x3d94fbe1	0.072746046
91	0xbdaffb15	-0.08592812
92	0xbd79247e	-0.060825817
93	0x3e01f573	0.12691288
94	0xbd763cdc	-0.060116634
95	0xbdaf2d78	-0.08553594
96	0x3d1fe130	0.039033115
97	0xbe16521d	-0.14679761
98	0x3e19067a	0.14943877
99	0xbd50713c	-0.05088924
100	0x3dbbbfb9	0.091674276
101	0xbceaa01a	-0.028640795
102	0x3da0e5d8	0.07856339
103	0xbe33b600	-0.17549896
104	0x3d562d4d	0.052289296
105	0x3e3e76cc	0.18600005
106	0xbe35699a	-0.17716065
107	0xbc9e59e5	-0.019329974
108	0x3df75f6f	0.120787494
109	0xbe2b994e	-0.167577
110	0x3e4c93cc	0.19978255
111	0x3dbb0a09	0.091327734
112	0xbda662cc	-0.08124313
113	0xbde12d5c	-0.1099498
114	0xbd801814	-0.062545925
115	0x3e2662de	0.16248652
116	0xbe1466c3	-0.14492325
117	0xbc9d5de5	-0.019209811
118	0x3c4b5560	0.012410492
119	0x3e0e4847	0.13894759
120	0xbd919938	-0.07109302
121	0x3da98c91	0.08278764
122	0xbc5565dd	-0.013024774
123	0x3d8cfa38	0.06883663
124	0x3d9d69cf	0.07686197
125	0x3d2efca3	0.042721402
126	0x3ab9364f	0.0014130565
127	0xbd5db345	-0.054126043
128	0x3cd0b048	0.025474682
129	0x3d84b02f	0.06478917
130	0x3d0287c9	0.031867776
131	0x3c927e3e	0.017882463
132	0xbc9dffd9	-0.019287037
133	0xbd68173c	-0.056662783
134	0xbdb0fe2a	-0.08642228
135	0x3db56bac	0.088584274
136	0xba9307d2	-0.0011217541
137	0x3cc2d2b2	0.023782108
138	0x3b94c9f4	0.0045406763
139	0x3d123345	0.035693426
140	0xb9fa4c98	-0.00047740783
141	0xbd6b597d	-0.05745839
142	0xbd8aa86b	-0.067704044
143	0xbe034cd4	-0.12822276
144	0xbc900238	-0.017579183
145	0xbd61b699	-0.05510578
146	0x3d3fdc3d	0.046840895
147	0xbd31d773	-0.04341836
148	0x3d5ecfca	0.05439738
149	0xbe4336c7	-0.19063865
150	0xbda65b78	-0.08122915
151	0xbe4c4d65	-0.19951399
152	0xbe309eff	-0.17248152
153	0xbe41c126	-0.18921337
154	0xbd24f973	-0.040276956
155	0x3dfa5345	0.12222914
156	0xbe045a86	-0.12925157
157	0x3d028bed	0.031871725
158	0xbaef1a8b	-0.0018242163
159	0xbdd9c0eb	-0.10632499
160	0x3d6e75ce	0.058217816
161	0xbcc47d1c	-0.023985438
162	0xbcb1d7f0	-0.021709412
163	0x3dc8f821	0.09812952
164	0xbe4dac29	-0.20085205
165	0xbd8f68c8	-0.07002407
166	0xbe1e5bd4	-0.15464717
167	0xbe360084	-0.17773634
168	0x3d01395a	0.031548835
169	0x3de6f1d0	0.11276591
170	0x3db349d6	0.087543175
171	0x3db6ca14	0.08925262
172	0xbd81a77d	-0.06330774
173	0x3daef959	0.08543653
174	0x3dc7983b	0.097458325
175	0x3c507ed3	0.01272555
176	0x3df27c59	0.11840124
177	0x3dcf98ae	0.10136543
178	0xbcba2753	-0.02272383
179	0xbd9c657e	-0.076365456
180	0x3d446934	0.047951892
181	0x3c79aa34	0.0152383335
182	0x3c933407	0.017969145
183	0x3b3c194d	0.0028701604
184	0x39d538ed	0.0004066894
185	0xbd904169	-0.07043726
186	0xbd20e3c1	-0.039279703
187	0xbd4ce5db	-0.050023895
188	0xbd901d5b	-0.07036849
189	0xbc97aadf	-0.018514095
190	0x3cfec4d6	0.031099718
191	0x3ce1f94c	0.027584694
192	0x3cc555be	0.024088737
193	0xba639ab1	-0.00086824136
194	0x3d0756c2	0.033041723
195	0xbd3f9737	-0.04677507
196	0x3d171371	0.036883775
197	0x3d4c6504	0.049901024
198	0x3d050618	0.032476515
199	0xbd164f74	-0.036696866
200	0xbd71ce8f	-0.05903488
201	0xbdf5abcf	-0.119956605
202	0x3c7cd623	0.015431914
203	0xbdf2485b	-0.11830207
204	0xbd857bf0	-0.0651778
205	0xbd1863b8	-0.037204474
206	0x3cb19612	0.021678004
207	0x3d19bb9e	0.03753244
208	0xbd455f73	-0.04818673
209	0xbdcd6eda	-0.10030909
210	0x3ccb7a03	0.024838453
211	0x3d4a0085	0.0493169
212	0x3c910558	0.017702743
213	0x39f6b975	0.00047058953
214	0x3d7ed0f8	0.062211007
215	0xbb0380bf	-0.0020065752
216	0xbcd05cae	-0.025434818
217	0xba86e29a	-0.0010290921
218	0x3acc590e	0.0015590505
219	0xbbe78d19	-0.0070663807
220	0x3b6d4a1c	0.0036207503
221	0x3d56b165	0.05241527
222	0xb9c6c94c	-0.0003791548
223	0xbb2a93db	-0.002602807
224	0x3c9c13b6	0.019052368
225	0xbbd4b5f2	-0.006491416
226	0x3c3bb325	0.011456286
227	0x3d1f0090	0.038818896
228	0xbbcae701	-0.0061920886
229	0xbc7146c0	-0.014726341
230	0xbdda0f17	-0.106474094
231	0xbdb1aca3	-0.08675506
232	0xbe0b52da	-0.13605824
233	0xbd886457	-0.06659763
234	0xbdd883a2	-0.10571982
235	0xbcb3dcb5	-0.021955827
236	0x3cf64e37	0.030066593
237	0xbe4907ad	-0.19631834
238	0xbe19ee35	-0.15032275
239	0xbe30de6f	-0.17272352
240	0xbc9acc18	-0.018896148
241	0xbce6a72f	-0.028155891
242	0x3d941162	0.07229878
243	0x3bd8232b	0.006595989
244	0x3c801a25	0.015637467
245	0xbaddb5c5	-0.0016915133
246	0xb90c1d38	-0.00013362325
247	0xbd5d6034	-0.054046825
248	0xbc6e9dce	-0.014563991
249	0x3ba38c33	0.0049910783
250	0x3bde38fc	0.0067816954
251	0xbb387696	-0.0028146855
252	0x3d8821d8	0.0664708
253	0xbc372350	-0.011177853
254	0xbd01e152	-0.031709023
255	0xbb1008ef	-0.002197798

fc.0.bias f4 [128]
0	0xbdd2ab5e	-0.10286592
1	0x3e1512bc	0.14557928
2	0xbc3a51f4	-0.011372078
3	0x3e0419ba	0.12900439
4	0x3d0abfb6	0.033874236
5	0x3d23f753	0.04003079
6	0xbd8e8984	-0.06959823
7	0xbdaf27ef	-0.085525386
8	0xbe266ebe	-0.16253182
9	0x3e83c48f	0.257359
10	0xbcabab8b	-0.020955821
11	0xbe0de319	-0.13856162
12	0xbd8b3efa	-0.06799121
13	0xbe13321d	-0.14374585
14	0xbdbc68b3	-0.09199657
15	0x3dab35fd	0.08359907
16	0xbce5712a	-0.028008062
17	0xbcd5f625	-0.026118347
18	0xbd9d5f5f	-0.07684206
19	0x3e081ed2	0.13293007
20	0x3df9f35e	0.12204622
21	0xbd201d06	-0.03909018
22	0x3dfa3715	0.12217537
23	0xbdbe7ce3	-0.09301164
24	0xbd4523d8	-0.048129886
25	0xbe2ec6ce	-0.17068025
26	0xbddb977e	-0.10722254
27	0x3d765373	0.060138177
28	0x3d19320a	0.037401237
29	0xbc824065	-0.015899846
30	0x3d689997	0.0567871
31	0x3db2c7a9	0.087294884
32	0x3e0dd5d4	0.138511
33	0xbe3bc89c	-0.18338245
34	0xbe0fc708	-0.14040768
35	0xbe3643c0	-0.17799282
36	0xbda0c522	-0.078501
37	0x3e3f111c	0.1865887
38	0xbd68d423	-0.056842934
39	0xbe03f554	-0.12886554
40	0xbc11bb0e	-0.008894695
41	0x3db1a0f6	0.08673279
42	0xbdc1cb88	-0.09462649
43	0xbc85e2cb	-0.016343495
44	0xbde47195	-0.111544766
45	0xba407d34	-0.00073428755
46	0xbe0a4fcb	-0.13507001
47	0xbd0432ac	-0.032274887
48	0xbd65b2ea	-0.05607883
49	0xbdd23ff5	-0.10266105
50	0x3e2c7844	0.16842753
51	0xbe14b087	-0.14520465
52	0xbe2bbac7	-0.16770469
53	0xbd28816e	-0.04113906
54	0x3cb09823	0.02155692
55	0x3de61974	0.112353235
56	0xbe078b60	-0.13236761
57	0x3d21d286	0.03950741
58	0x3dcb65a7	0.09931498
59	0x3db5273a	0.088453725
60	0xbd93512c	-0.07193217
61	0xbe1ee248	-0.15516007
62	0x3e20ddd6	0.15709624
63	0xbd3724f3	-0.044712972
64	0x3d375b3f	0.044764753
65	0x3d281ad2	0.041041203
66	0xbd2e7b17	-0.042597856
67	0x3d8e7026	0.06954984
68	0xbd07635c	-0.03305374
69	0x3d2c6d45	0.042096395
70	0xbdf28459	-0.118416496
71	0x3d48b817	0.049003687
72	0x3dc351c5	0.09537081
73	0x3e4fe2cf	0.20301364
74	0x3b1ee597	0.0024245733
75	0x3d4b036f	0.04956382
76	0x3c96e2d3	0.018418705
77	0xbe47a8b3	-0.19497947
78	0xbbd23d60	-0.006416008
79	0xbd22ac93	-0.03971536
80	0x3c5e7f86	0.013580209
81	0x3d23b72e	0.039969616
82	0xbe718f47	-0.23589812
83	0x3e0b9bb5	0.13633616
84	0xbe589e59	-0.21154155
85	0x3e314e77	0.17315088
86	0x3daf7a6f	0.08568274
87	0x3d3ef934	0.046624377
88	0x3de420b8	0.11139053
89	0x3d6e8f6d	0.05824225
90	0x3c849dc2	0.016188506
91	0xbb4a3ed5	-0.0030860205
92	0x3e0d3580	0.1378994
93	0x3e038a07	0.12845622
94	0x3e346c1e	0.17619368
95	0x3e45cdfc	0.19316858
96	0xbd8bc77e	-0.068251595
97	0x3dc6ee21	0.09713388
98	0xbd81e5ba	-0.06342645
99	0x3beb54f4	0.007181758
100	0x3d7c05f3	0.06152911
101	0x3dc2bf70	0.0950917
102	0x3e0229f3	0.12711315
103	0xbde01740	-0.109419346
104	0x3e24e00a	0.16101089
105	0xbd45d747	-0.048301008
106	0xbd81f6c8	-0.06345898
107	0x3e19cff3	0.15020733
108	0xbe0693f0	-0.13142371
109	0xbc2466ef	-0.010034307
110	0x3e1b3298	0.15156019
111	0xbe1411b8	-0.14459884
112	0x3d71c28c	0.059023425
113	0x3d90e4a9	0.070748635
114	0x3ce53f04	0.02798415
115	0xbd885886	-0.066575095
116	0x3d852405	0.06501011
117	0xbe576549	-0.21034731
118	0xbe0ed356	-0.13947806
119	0xbd1506c1	-0.036383394
120	0x3ce2c1e4	0.027680345
121	0xba6b27ad	-0.0008970451
122	0xbdd90472	-0.10596551
123	0xbdd91268	-0.10599214
124	0xbd97cdce	-0.07412301
125	0xbe54bd9b	-0.20775454
126	0xbd86e955	-0.06587473
127	0x3d9b3373	0.075781725

fc.2.weight f4 [784, 128]
0	0xbe3c00cf	-0.18359683
1	0xbdb5e514	-0.08881584
2	0xbe69280a	-0.2276918
3	0xbe5326a2	-0.20620206
4	0xbd93c66c	-0.0721558
5	0xbe26da7e	-0.16294286
6	0xbdbd2932	-0.09236373
7	0xbe2ebc6d	-0.17064066
8	0xbe218545	-0.15773495
9	0xbe0043ba	-0.12525836
10	0xbe166d95	-0.1469024
11	0xbdf3d3bc	-0.119056195
12	0xbe32295e	-0.17398593
13	0xbe329890	-0.1744101
14	0xbdbb06c2	-0.09132148
15	0xbe2c07b7	-0.16799818
16	0xbd9db0ed	-0.076997615
17	0xbe72ad37	-0.23698889
18	0xbe1f5411	-0.15559413
19	0xbe5fd33d	-0.21857925
20	0xbe23cf9d	-0.15997167
21	0xbe4a0d42	-0.1973162
22	0xbdc0ef34	-0.094206244
23	0xbe67b1b3	-0.2262638
24	0xbdc57446	-0.09641318
25	0xbdb24438	-0.08704418
26	0xbe30b437	-0.17256247
27	0xbd83bd89	-0.06432635
28	0xbd653ba6	-0.05596509
29	0xbe2994f9	-0.16560735
30	0xbe5768f9	-0.21036138
31	0xbdf06dd8	-0.11739701
32	0xbe5003e9	-0.20313992
33	0xbe1eb699	-0.15499343
34	0xbe237aff	-0.15964888
35	0xbe37c53d	-0.17946334
36	0xbe3f9386	-0.1870862
37	0xbe5f0801	-0.21780397
38	0xbe3c95be	-0.18416497
39	0xbd6e7de1	-0.058225516
40	0xbe0ed9fa	-0.13950339
41	0xbdcd6016	-0.100280926
42	0xbe40e250	-0.18836331
43	0xbe19da31	-0.1502464
44	0xbe521c45	-0.20518596
45	0xbdd08fec	-0.10183701
46	0xbe157eec	-0.14599198
47	0xbe618ec7	-0.22027121
48	0xbdd63173	-0.104586504
49	0xbdfd2f58	-0.12362546
50	0xbe29b0c7	-0.16571341
51	0xbe03c239	-0.12867059
52	0xbd23c86b	-0.039986055
53	0xbe5d4662	-0.2160888
54	0xbe546bba	-0.2074422
55	0xbde82b3b	-0.113363706
56	0xbe0cd885	-0.1375447
57	0xbdb564c4	-0.0885711
58	0xbdf2d946	-0.11857848
59	0xbe0ccdbf	-0.13750361
60	0xbe0e5fa3	-0.1390367
61	0xbe35e4dd	-0.17763086
62	0xbe165dfd	-0.14684291
63	0xbe13b58c	-0.14424723
64	0xbdfb90ef	-0.12283503
65	0xbdea0ef1	-0.11428631
66	0xbe50bdb9	-0.20384873
67	0xbe4c2e76	-0.19939598
68	0xbe807bd2	-0.25094467
69	0xbe1733aa	-0.14765802
70	0xbe347a8a	-0.1762487
71	0xbe10dad6	-0.1414598
72	0xbe165306	-0.14680108
73	0xbe4b02bc	-0.19825262
74	0xbe3836bc	-0.1798963
75	0xbe202e33	-0.15642624
76	0xbdcf00ac	-0.1010755
77	0xbdfda3c5	-0.12384752
78	0xbe5b1857	-0.21396004
79	0xbdf54bca	-0.11977346
80	0xbdf353b9	-0.11881203
81	0xbe4da520	-0.20082521
82	0xbe233f84	-0.15942198
83	0xbde80176	-0.11328404
84	0xbd191a47	-0.037378576
85	0xbe15650a	-0.14589325
86	0xbe34d5e6	-0.17659721
87	0xbdf25b0f	-0.11833774
88	0xbe3eef53	-0.18645982
89	0xbdef8cc4	-0.11696771
90	0xbde1b509	-0.11020858
91	0xbd9c620a	-0.07635887
92	0xbe34d4dc	-0.17659324
93	0xbdbca9ed	-0.09212098
94	0xbe3249e0	-0.17410994
95	0xbe227cc3	-0.15867905
96	0xbe77cd8c	-0.24199504
97	0xbe72a846	-0.23697004
98	0xbe74c11d	-0.23901792
99	0xbe024a0d	-0.1272356
100	0xbe646483	-0.22303967
101	0xbe3da6ee	-0.1852071
102	0xbe5c24e5	-0.21498449
103	0xbe213713	-0.15743665
104	0xbe5bae72	-0.21453264
105	0xbda38ce4	-0.07985857
106	0xbe4c0bda	-0.19926396
107	0xbe158444	-0.14601237
108	0xbe537d83	-0.20653348
109	0xbe0e39b2	-0.13889197
110	0xbe06ab35	-0.13151248
111	0xbe553247	-0.2081996
112	0xbdb345d2	-0.087535515
113	0xbe5f60f5	-0.2181433
114	0xbdcaa66f	-0.09895026
115	0xbd7da2fd	-0.061923016
116	0xbcf0002b	-0.029296955
117	0xbdc62810	-0.0967561
118	0xbd93be29	-0.072140045
119	0xbdf40864	-0.11915663
120	0xbe15b487	-0.14619647
121	0xbe73e39a	-0.23817292
122	0xbe22f4bc	-0.15913671
123	0xbe238bc5	-0.15971287
124	0xbe191130	-0.14947963
125	0xbe55b4de	-0.20869777
126	0xbe715f13	-0.23571424
127	0xbe543d71	-0.20726563
128	0xbe1cf045	-0.1532603
129	0xbc7e3f9f	-0.015518098
130	0xbe56cbeb	-0.20976226
131	0xbdaa6dd3	-0.083217286
132	0xbd4c03b1	-0.049808208
133	0xbdf43772	-0.11924638
134	0xbd3f042e	-0.046634845
135	0xbdfe2e3a	-0.12411161
136	0xbe277c62	-0.16356042
137	0xbdcdfd87	-0.10058122
138	0xbe3ba86b	-0.18325965
139	0xbe0bbfdd	-0.13647409
140	0xbddc6773	-0.10761919
141	0xbe28a0b7	-0.16467558
142	0xbe15a011	-0.14611842
143	0xbe0cd033	-0.13751297
144	0xbde13ea0	-0.10998273
145	0xbde155bd	-0.110026814
146	0xbe272511	-0.16322733
147	0xbe3e9762	-0.18612435
148	0xbe1a20d2	-0.15051582
149	0xbe0785e2	-0.13234666
150	0xbdb76224	-0.08954266
151	0xbcfc262c	-0.03077992
152	0x3ad986bd	0.0016595941
153	0xbe2bee06	-0.16790017
154	0xbd924e53	-0.071438454
155	0xbe1ffbbe	-0.15623376
156	0xbd978f2b	-0.07400354
157	0xbd8b1305	-0.06790737
158	0xbe03f5f0	-0.12886786
159	0xbd59b557	-0.053151455
160	0xbdfb120e	-0.12259303
161	0xbd3fb819	-0.04680643
162	0xbe0b10b9	-0.13580598
163	0xbdff3a43	-0.124622844
164	0xbdad75e3	-0.08469751
165	0xbd74dc50	-0.05978042
166	0xbe4efaa8	-0.20212805
167	0xbe19d405	-0.15022285
168	0xbe084c80	-0.13310432
169	0xbd95f2e9	-0.07321722
170	0xbe8608c3	-0.2617856
171	0xbe827735	-0.25481573
172	0xbe7ddc99	-0.24791183
173	0xbe002268	-0.12513125
174	0xbe5486c3	-0.20754533
175	0xbde78d7e	-0.11306284
176	0xbdba9f21	-0.09112383
177	0xbdc5634d	-0.09638081
178	0xbe29fd42	-0.16600516
179	0xbe0cfafd	-0.1376762
180	0xbd417759	-0.04723296
181	0xbe1d6acc	-0.15372771
182	0xbdf61b05	-0.12016872
183	0xbde00a91	-0.109395154
184	0xbd365a4c	-0.044519708
185	0xbe2a6fad	-0.16644163
186	0x3b81ea75	0.003964717
187	0xbe1e5d34	-0.15465242
188	0xbe83ddd2	-0.25755173
189	0xbe449cae	-0.19200394
190	0xbe4e0ac7	-0.20121299
191	0xbd87e1ce	-0.06634866
192	0xbe1987d0	-0.14993215
193	0xbe07eb68	-0.13273394
194	0xbe44be50	-0.19213223
195	0xbd199415	-0.037494738
196	0xbe1f652b	-0.15565936
197	0xbdf8b1b2	-0.12143268
198	0xbde338df	-0.11094832
199	0xbde9ad26	-0.114099786
200	0xbe04daec	-0.12974137
201	0xbe710db4	-0.23540384
202	0xbdf2822f	-0.11841237
203	0xbe1133c3	-0.14179902
204	0xbd880056	-0.06640689
205	0xbdd52ae5	-0.10408572
206	0xbd7e5696	-0.062094294
207	0xbe0dba31	-0.13840558
208	0xbdaa8cb3	-0.083276175
209	0xbe18ef83	-0.14935116
210	0xbcdaa296	-0.026688855
211	0xbde2ae7b	-0.11068436
212	0xbd52a28d	-0.05142455
213	0xbe329451	-0.1743939
214	0xbe3c9e63	-0.18419795
215	0xbdf79d2e	-0.120905265
216	0xbe3cccfe	-0.18437573
217	0xbe1de0a7	-0.1541773
218	0xbdc08889	-0.09401042
219	0xbe1398aa	-0.14413705
220	0xbe1da9a6	-0.15396747
221	0xbe67a465	-0.22621305
222	0xbe35b56d	-0.1774499
223	0xbdbac219	-0.091190524
224	0xbe5112fb	-0.20417397
225	0xbe05cd4f	-0.130666
226	0x3b30c6ed	0.0026974038
227	0xbdb4109b	-0.0879223
228	0xbde4c6b7	-0.11170714
229	0xbe1455d5	-0.14485867
230	0xbdb082ca	-0.08618696
231	0xbda242bc	-0.07922885
232	0xbe271348	-0.16315949
233	0xbe239ef7	-0.15978609
234	0xbe33b41d	-0.17549177
235	0xbe379bb6	-0.17930493
236	0xbe493349	-0.1964847
237	0xbdd1ed40	-0.1025033
238	0xbe10deab	-0.14147441
239	0xbdd1e1fe	-0.10248183
240	0xbd3390af	-0.043839153
241	0xbe183858	-0.14865243
242	0xbd7ab5ae	-0.06120842
243	0x3cdfb2a4	0.027306862
244	0xbe0d3002	-0.13787845
245	0xbe474b5d	-0.19462343
246	0xbe42b834	-0.1901558
247	0xbe3e94b2	-0.1861141
248	0xbe287e4f	-0.16454433
249	0xbd94dd9c	-0.07268831
250	0xbdea55a0	-0.11442113
251	0xbdc22dca	-0.0948139
252	0xbe53746f	-0.20649885
253	0xbe313d45	-0.17308529
254	0xbe1a6547	-0.15077697
255	0xbe380b07	-0.17972957

fc.2.bias f4 [784]
0	0xbe39e5f8	-0.18154132
1	0xbe106550	-0.14101148
2	0xbdfb3ddf	-0.1226766
3	0xbe1fb463	-0.15596156
4	0xbdd9c8d4	-0.10634008
5	0xbe31e733	-0.17373352
6	0xbe1d79c0	-0.15378475
7	0xbdf9fd42	-0.12206508
8	0xbdc21e8c	-0.094784826
9	0xbe0e7231	-0.13910748
10	0xbe119c2d	-0.14219733
11	0xbdd6df50	-0.10491812
12	0xbe42a79c	-0.1900925
13	0xbdd9f312	-0.10642065
14	0xbe185c9f	-0.14879082
15	0xbe5f7b3d	-0.21824355
16	0xbe72c777	-0.23708902
17	0xbda168ce	-0.07881318
18	0xbe0b2047	-0.13586532
19	0xbe59abbe	-0.2125692
20	0xbe12cf76	-0.14336953
21	0xbe045e27	-0.12926541
22	0xbdbf61d2	-0.093448296
23	0xbe00cb7b	-0.12577622
24	0xbda0aad4	-0.07845083
25	0xbdd7d6bd	-0.10539005
26	0xbe1d78a5	-0.15378053
27	0xbe63bbf8	-0.22239673
28	0xbcf3bc7e	-0.029752966
29	0xbe7479d2	-0.23874596
30	0xbe201356	-0.15632376
31	0xbe19d6bd	-0.15023322
32	0xbdae71ba	-0.08517785
33	0xbe2d910e	-0.16949865
34	0xbde0e65c	-0.109814376
35	0xbe28eb94	-0.16496116
36	0xbe3b1be6	-0.18272361
37	0xbe3c473f	-0.18386553
38	0xbe52bf79	-0.20580854
39	0xbe1440c9	-0.14477839
40	0xbe2a79e6	-0.16648063
41	0xbe15ffc1	-0.14648344
42	0xbe838326	-0.25685996
43	0xbe78d5a9	-0.24300255
44	0xbe1a7be3	-0.15086322
45	0xbe06449a	-0.13112107
46	0xbddf7345	-0.10910658
47	0xbe3c0baa	-0.18363824
48	0xbe379213	-0.17926817
49	0xbe0a8d66	-0.13530502
50	0xbd97e2c4	-0.07416299
51	0xbe669797	-0.22518764
52	0xbe08951e	-0.13338134
53	0xbe494132	-0.19653776
54	0xbd7cf351	-0.061755482
55	0xbe549309	-0.20759214
56	0xbe335c2e	-0.17515633
57	0xbe5fae08	-0.21843731
58	0xbe13b51a	-0.14424554
59	0xbe39bc93	-0.18138342
60	0xbe5f9410	-0.21833825
61	0xbe2c5280	-0.16828346
62	0xbe1a1c4b	-0.15049855
63	0xbdc7b515	-0.097513355
64	0xbdf6076e	-0.12013136
65	0xbdd53598	-0.10410613
66	0xbe3ba5c0	-0.18324947
67	0xbda17a0e	-0.07884608
68	0xbe0c32bd	-0.1369123
69	0xbe54e678	-0.20791042
70	0xbe1b0c6b	-0.15141456
71	0xbdfe34a8	-0.12412387
72	0xbd85c303	-0.06531336
73	0x3bef8545	0.007309588
74	0xbdadc2f3	-0.08484449
75	0xbe49edc5	-0.19719608
76	0xbdfbac47	-0.12288719
77	0xbe1472b6	-0.14496884
78	0xbe0b1175	-0.13580878
79	0xbd95197e	-0.07280253
80	0xbe7faca5	-0.24968202
81	0xbe39a120	-0.1812787
82	0xbdda9d8b	-0.1067458
83	0xbe4c6fc8	-0.19964516
84	0xbdc66c91	-0.09688676
85	0xbe1bc53f	-0.15211962
86	0xbe6aca59	-0.22928752
87	0xbe0d27b8	-0.13784683
88	0xbe32a8e2	-0.17447236
89	0xbd9a5c06	-0.07537083
90	0xbe14c942	-0.14529899
91	0xbe1b957b	-0.15193741
92	0xbda7f23b	-0.08200499
93	0xbe1883eb	-0.14894073
94	0xbdf0c9a4	-0.1175721
95	0xbdd44d3d	-0.103662945
96	0xbda6f857	-0.08152836
97	0xbe1e27ad	-0.15444823
98	0xbdf45ff2	-0.119323626
99	0xbe37ede5	-0.17961843
100	0xbdd2d6fa	-0.1029491
101	0xbe1a1f44	-0.1505099
102	0xbe2008ec	-0.15628403
103	0xbe4527c0	-0.19253445
104	0xbd8c13ad	-0.0683969
105	0xbd963f0f	-0.07336246
106	0xbdfb3f31	-0.12267912
107	0xbda6de42	-0.08147861
108	0xbd2ef2f2	-0.04271216
109	0xbe3d4c00	-0.18486023
110	0xbe538aa6	-0.20658359
111	0xbe7cbca1	-0.24681331
112	0xbe86cad3	-0.26326618
113	0xbe7b02a6	-0.24512729
114	0xbe676794	-0.22598106
115	0xbdf34838	-0.11879009
116	0xbdf66788	-0.12031466
117	0xbdc82a9b	-0.09773751
118	0xbe435be0	-0.19078016
119	0xbe5dae81	-0.21648599
120	0xbdeb87f5	-0.11500541
121	0xbd80bc09	-0.06285865
122	0xbe13fc1b	-0.1445164
123	0xbdfe927d	-0.12430284
124	0xbcb7947a	-0.022409666
125	0xbdb256ea	-0.08707984
126	0xbdf8eb3e	-0.12154244
127	0xbd9977a0	-0.0749352
128	0xbbb28c00	-0.005448818
129	0x3c8c88ec	0.017155133
130	0xbe0ba794	-0.13638145
131	0xbde05cdf	-0.10955214
132	0xbd8408d6	-0.06446998
133	0xbdfea8be	-0.12434529
134	0xbce55ed8	-0.027999327
135	0xbe0d5a10	-0.13803887
136	0xbe40e823	-0.18838553
137	0xbdbbbf10	-0.09167302
138	0xbd9ab6e9	-0.075544186
139	0xbe0ae448	-0.13563645
140	0xbe59a48b	-0.21254174
141	0xbde7851f	-0.11304688
142	0xbe395b8f	-0.18101333
143	0xbdfe57da	-0.124191
144	0xbe4e1615	-0.20125611
145	0xbe52a2a4	-0.20569855
146	0xbe3dba93	-0.18528204
147	0x3d0466a6	0.032324456
148	0xbdf6eea5	-0.120572366
149	0xbdc440b4	-0.09582654
150	0xbd49cee7	-0.049269583
151	0xbdc2fe8d	-0.09521208
152	0xbdf9f51a	-0.122049525
153	0x3cf4fd97	0.029906077
154	0xbd4a7231	-0.049425308
155	0x3d08276b	0.033240717
156	0xbc9f79d3	-0.01946727
157	0xbc9321f3	-0.017960524
158	0x3d1f4593	0.03888471
159	0xbe016cee	-0.1263921
160	0xbde4d00a	-0.11172493
161	0xbe0d99fe	-0.13828275
162	0xbd7e460b	-0.062078517
163	0xbe0bdd56	-0.13658652
164	0xbd79425d	-0.060854305
165	0xbd94544e	-0.07242642
166	0xbe2c3c67	-0.16819917
167	0xbe2c7df7	-0.16844927
168	0xbe1c2969	-0.15250172
169	0xbd924ccd	-0.07143555
170	0xbdd5a95b	-0.104326926
171	0xbddd835e	-0.10816072
172	0xbe4cc15c	-0.19995636
173	0xbe13bc5f	-0.14427327
174	0xbce02493	-0.02736119
175	0xbe004b04	-0.12528616
176	0xbce26cae	-0.027639713
177	0xbaa1c267	-0.0012341262
178	0xbe068af7	-0.13138948
179	0xbda1cc89	-0.0790034
180	0x3d67f5ee	0.05663102
181	0xbd68d801	-0.056846622
182	0xbd5576b8	-0.052115172
183	0x3d94859a	0.07252045
184	0x38866dab	6.410045e-05
185	0x3d89d667	0.06730347
186	0x3d96efb5	0.07369939
187	0xbdd63375	-0.104590334
188	0xbcac9fdb	-0.021072319
189	0xbdd5bc16	-0.10436265
190	0xbdb3850a	-0.087656096
191	0xbd7d67d9	-0.061866615
192	0x3abda860	0.0014469735
193	0xbe15c694	-0.14626533
194	0xbe269fe5	-0.16271932
195	0xbe4e8a00	-0.2016983
196	0xbe827db3	-0.25486526
197	0xbe424558	-0.18971765
198	0xbe0e747a	-0.1391162
199	0xbe153227	-0.14569913
200	0xbe1c9103	-0.15289693
201	0xbde67df2	-0.11254491
202	0xbe316418	-0.17323339
203	0xbe17c8a0	-0.14822626
204	0xbde5a84d	-0.112137415
205	0x3c065c08	0.008200653
206	0xbd384dd5	-0.0449961
207	0xbc0eeca8	-0.008723415
208	0xbbedc0ee	-0.007255665
209	0x3c269354	0.010166962
210	0x3d24e9f2	0.04026217
211	0xbc5e39bd	-0.013563571
212	0x3ca2679c	0.019824795
213	0xbd984c26	-0.07436399
214	0x3d3610e9	0.04444972
215	0xbd95b315	-0.07309548
216	0xbd9dd7be	-0.07707165
217	0xbc436392	-0.011925595
218	0xbe091a4e	-0.1338894
219	0xbd7078ad	-0.058708835
220	0xbe1004bf	-0.1406431
221	0xbd8e8af9	-0.06960101
222	0xbde173d2	-0.11008419
223	0xbe5f90ba	-0.21832553
224	0xbe41cd10	-0.18925881
225	0xbe5acbc5	-0.21366794
226	0xbe5a9a5b	-0.21347944
227	0xbd81eddd	-0.06344197
228	0xbe1cc2ad	-0.15308638
229	0xbd57be5f	-0.052671786
230	0xbdeac6b6	-0.11463682
231	0xbd8cc78c	-0.06873998
232	0xbbe9a920	-0.007130757
233	0xbd781640	-0.060568094
234	0xbd3e5026	-0.046463154
235	0xbce83be4	-0.02834887
236	0x3d159c24	0.03652586
237	0xbce6e702	-0.028186325
238	0x3d6d9012	0.057998724
239	0xbc59645a	-0.013268555
240	0x3d2a78d6	0.041619144
241	0xbc39137d	-0.01129615
242	0x3d28b9de	0.04119288
243	0xbd808fea	-0.062774494
244	0xbdd6bca6	-0.104852006
245	0xbd46f038	-0.048568934
246	0xbd3c4839	-0.045967314
247	0xbe366fb5	-0.1781605
248	0xbda222fe	-0.079168305
249	0xbe08ef51	-0.13372542
250	0xbe031d5f	-0.12804173
251	0xbdd25f6b	-0.10272106
252	0xbe6b662b	-0.22988193
253	0xbe3c699e	-0.18399665
254	0xbdc94d14	-0.098291546
255	0xbe0d0eba	-0.13775149
